BestModel.pth (torch, 104287 bytes, 10 tensors)

denoise_model.enc.linear.weight f4 [256, 18]
0	0xbe7ff979	-0.2499751
1	0xbdd909e2	-0.10597588
2	0xbd910eb6	-0.07082884
3	0xbd8c2ef8	-0.06844896
4	0xbe3acc76	-0.18242058
5	0xbddd58d5	-0.10807959
6	0xbe1f0104	-0.15527731
7	0xbe15d6c0	-0.14632702
8	0xbc9576fd	-0.018245215
9	0x3d8da16b	0.06915554
10	0xbe2778fc	-0.16354746
11	0xbd9ff410	-0.07810223
12	0x3e7977ca	0.24362102
13	0xbe6c0d78	-0.23052013
14	0x3d23180e	0.039817862
15	0x3e72a244	0.23694712
16	0x3e5f7247	0.21820937
17	0xbe108b9d	-0.14115758
18	0x3db88c99	0.09011192
19	0xbde84da0	-0.11342931
20	0x3e1ac346	0.15113553
21	0x3e0f57e6	0.13998374
22	0xbd5628af	-0.052284893
23	0xbe5cc2e9	-0.21558727
24	0x3da5b5d0	0.080913186
25	0xbca49840	-0.02009213
26	0xbd1a23d7	-0.037631836
27	0xbda8ebde	-0.08248113
28	0x3d81c482	0.06336309
29	0xbdad451d	-0.08460448
30	0x3e02f178	0.12787426
31	0x3e2a713f	0.16644762
32	0xbdc6be6b	-0.09704288
33	0x3e3e5d45	0.18590267
34	0xbd9664c6	-0.0734344
35	0x3d4aee64	0.049543753
36	0xbe19d26e	-0.15021679
37	0xbe19e178	-0.15027416
38	0xbe172399	-0.14759673
39	0x3dd7d27f	0.10538196
40	0x3e6571de	0.22406718
41	0xbdc612e1	-0.096715696
42	0xbc54eaeb	-0.012995462
43	0xbdd1aab0	-0.10237634
44	0xbd6e1222	-0.05812276
45	0xbd640e63	-0.055677783
46	0xbe6385fd	-0.22219081
47	0x3d541387	0.051776435
48	0x3dea760c	0.11448297
49	0x3e5eebff	0.21769713
50	0xbe00d417	-0.12580906
51	0x3df60ddb	0.120143615
52	0x3e82b749	0.2553046
53	0xbe4a5285	-0.19758041
54	0xbdfd759c	-0.12375948
55	0xbd36b837	-0.044609275
56	0xbdfbd66b	-0.12296756
57	0xbbca7929	-0.006178994
58	0xbe4b5aa3	-0.19858794
59	0xbddb5412	-0.107093945
60	0x3da3d76b	0.08000072
61	0xbdf8adf2	-0.121425524
62	0xbe4695bb	-0.19393055
63	0xbe1aecd7	-0.1512941
64	0xbc1649f8	-0.009172909
65	0xbd69532e	-0.056964092
66	0x3e41f89f	0.18942498
67	0x3e455c59	0.19273509
68	0x3cacf84b	0.021114489
69	0xbd8e3620	-0.06943917
70	0x3e1ad96b	0.15122001
71	0x3e79116e	0.24323055
72	0x3deca3af	0.11554658
73	0xbcc46337	-0.02397309
74	0x3d09e18f	0.033662375
75	0xbe0e4f46	-0.13897428
76	0x3e706e07	0.23479472
77	0x3dbb370f	0.09141361
78	0xbdcab9d2	-0.09898724
79	0x3e6d22c9	0.231578
80	0x3e1c1957	0.15244041
81	0x3e07a245	0.13245495
82	0xbcb9398d	-0.02261045
83	0xbe36bd0b	-0.17845552
84	0xbe09a103	-0.13440327
85	0xbc256182	-0.010094048
86	0x3d9f9f85	0.07794098
87	0x3e79c3d9	0.24391116
88	0x3e00e95a	0.12589017
89	0xbdc3e043	-0.09564259
90	0xbd455585	-0.04817726
91	0x3dcd5b6a	0.100272015
92	0x3e005bf4	0.12535077
93	0xbe2bc294	-0.16773444
94	0x3dc0744b	0.09397181
95	0xbe42873e	-0.18996903
96	0x3d6df2eb	0.058092993
97	0xbe5c66a7	-0.21523534
98	0xbd3c08a3	-0.045906674
99	0x3e366de6	0.1781536
100	0x3df411e4	0.11917475
101	0x3d23cc08	0.0399895
102	0x3e478652	0.19484833
103	0x3d0ed525	0.03487124
104	0x3e69df6a	0.22839132
105	0x3e083798	0.13302457
106	0x3dcfa054	0.10138002
107	0x3e57b08a	0.21063438
108	0xbdfe0684	-0.124035865
109	0xbda9d310	-0.0829221
110	0x3e72a19f	0.23694466
111	0x3e64cacd	0.22342987
112	0xbda63979	-0.08116431
113	0x3d1e14a1	0.038593892
114	0x3d24ca47	0.04023197
115	0xbe3d24fe	-0.18471143
116	0x3cc44bf4	0.023961999
117	0xbd2c0660	-0.041998267
118	0x3e778e14	0.24175292
119	0x3e1ca4bd	0.15297218
120	0x3c1869ba	0.009302551
121	0xbe187fd4	-0.14892513
122	0x3deb90af	0.115022056
123	0x3e1ac31b	0.1511349
124	0x3e0b5c19	0.13609351
125	0x3d102e8a	0.035200633
126	0xbd86b22d	-0.06576953
127	0xbe8ac546	-0.27103633
128	0xbd2fd983	-0.042932045
129	0xbd840bd6	-0.0644757
130	0x3e753808	0.23947155
131	0x3d825047	0.06362968
132	0x3d816f4d	0.06320057
133	0xbe0525f9	-0.13002767
134	0xbd96e8d2	-0.07368626
135	0xbd143f93	-0.03619344
136	0x3cbc8ad6	0.02301542
137	0xbd3d3006	-0.046188377
138	0x3dc44117	0.095827274
139	0xbb3934c8	-0.002826022
140	0x3bda4f38	0.0066622756
141	0x3e5ad008	0.2136842
142	0x3e3edade	0.18638179
143	0x3d800702	0.06251337
144	0xbd137adf	-0.03600585
145	0xbdbebbb3	-0.093131445
146	0xbd7e4c02	-0.062084205
147	0x3d8111e9	0.06302244
148	0xbdb22d65	-0.087000646
149	0x3e5aa224	0.21350914
150	0xbddbeee2	-0.10738923
151	0xbe19a5f1	-0.15004708
152	0x3e10fc34	0.14158708
153	0x3ddfe46d	0.10932241
154	0xbd32dd46	-0.043668054
155	0x3d808368	0.06275064
156	0xbe443422	-0.19160512
157	0xbb8ed6e0	-0.004359111
158	0x3e647711	0.22311045
159	0x3e4e9633	0.20174484
160	0x3e48dd28	0.19615614
161	0x3e47e432	0.19520643
162	0xbe7d674a	-0.24746433
163	0x3b5d7656	0.0033792458
164	0x3d95406e	0.072876796
165	0x3e466c26	0.19377193
166	0x3d0b8b70	0.034068525
167	0xbe078358	-0.13233697
168	0xbe82889d	-0.25494853
169	0x3e144219	0.14478339
170	0xbcc06465	-0.023485372
171	0xbc73541b	-0.014851595
172	0xbddbf388	-0.10739809
173	0x3c3b37a1	0.011426837
174	0x3e208bf3	0.15678386
175	0xbd1f4a6e	-0.03888934
176	0x3da8830b	0.082281195
177	0xbe7cd3ad	-0.24690123
178	0xbe50d8eb	-0.20395248
179	0x3e4824ef	0.19545339
180	0x3c0905c5	0.008363192
181	0x3e32471b	0.17409937
182	0x3e1cd0c3	0.15314011
183	0x3d424491	0.04742867
184	0x3d9b6c63	0.075890325
185	0xbd238e4d	-0.03993063
186	0x3d2f440d	0.042789508
187	0xbe5d4e48	-0.21611893
188	0x3e80209a	0.25024873
189	0x3e2fb679	0.17159452
190	0xbe20406e	-0.15649578
191	0xbd0e580b	-0.034751933
192	0x3e296ec0	0.16546154
193	0xbd87fd3f	-0.066401
194	0x3da8cdff	0.08242416
195	0x3ccf23d7	0.025285644
196	0xbe54cbb7	-0.20780836
197	0xbe320048	-0.1738292
198	0x3e6c3f3f	0.23071001
199	0xbe5f4066	-0.2180191
200	0x3d87975d	0.06620667
201	0xbcc57859	-0.024105238
202	0xbe55521a	-0.208321
203	0xbe10899c	-0.14114994
204	0xbe35468d	-0.17702694
205	0x3de5605b	0.11200019
206	0xbe5bebb4	-0.21476632
207	0x3e5bd2d4	0.21467143
208	0x3e1a06f6	0.15041718
209	0xbe1ed8a8	-0.15512335
210	0xbd21d741	-0.039511923
211	0x3c31003f	0.010803281
212	0xbbf60093	-0.0075073927
213	0xbe3f2ebe	-0.18670174
214	0x3e79b83f	0.2438669
215	0x3e16706c	0.14691323
216	0xbd7aab0e	-0.061198287
217	0xbe5afaad	-0.21384688
218	0xbe733df4	-0.23754102
219	0xbdc1bd74	-0.094599634
220	0xbdd313a6	-0.10306482
221	0xbe331c6e	-0.17491314
222	0x3dcdcf80	0.10049343
223	0x3debe83f	0.11518907
224	0xbd9ff7b8	-0.078109205
225	0xbe452252	-0.19251373
226	0xbd61ddad	-0.055143047
227	0x3e33675b	0.17519896
228	0xbdc084ad	-0.09400306
229	0x3dc42f8b	0.095793806
230	0x3dae366b	0.08506473
231	0xbe76b05b	-0.24090712
232	0xbe2c31b3	-0.16815834
233	0xbd1ee734	-0.03879471
234	0x3d8d7adf	0.069082014
235	0x3d53f4d9	0.051747177
236	0x3e1e6a62	0.1547027
237	0x3d53a970	0.05167526
238	0x3def8dd3	0.11696973
239	0xbe2889db	-0.16458838
240	0x3e1c0dc6	0.15239629
241	0x3dc94be7	0.0982893
242	0x3ddda395	0.108222164
243	0xbbdd1f05	-0.0067480826
244	0x3e6fb43b	0.23408596
245	0x3d2bf338	0.04198
246	0xbe3601bd	-0.177741
247	0x3e4b264f	0.19838832
248	0xbdcd5cce	-0.10027467
249	0xbc24cd92	-0.010058777
250	0xbe417473	-0.18892078
251	0xbd90c4e7	-0.07068806
252	0x3e4a7269	0.19770207
253	0x3de9ae18	0.11410159
254	0xbdff813f	-0.124758236
255	0xbe5d0017	-0.21582066

denoise_model.enc.linear.bias f4 [256]
0	0xbd95d142	-0.073153034
1	0x3e46704f	0.1937878
2	0xbd06dc04	-0.032924667
3	0xbe349552	-0.17635086
4	0x3e0d0f4b	0.13775365
5	0x3d55ebdb	0.052226882
6	0xbe000eb9	-0.12505616
7	0x3d86ea2e	0.06587635
8	0xbc7850a5	-0.015155946
9	0xbcac167d	-0.021006817
10	0xbe026ded	-0.12737246
11	0xbe27258a	-0.16322914
12	0xbe1f86e9	-0.15578808
13	0x3dc63c1d	0.096794344
14	0xbd878800	-0.06617737
15	0xbd34d777	-0.044150796
16	0xbd89cc20	-0.06728387
17	0xbe0e6f93	-0.1390975
18	0xbdb84e1e	-0.08999275
19	0x3cf6f0fe	0.03014421
20	0x3e3098df	0.17245816
21	0x3e453388	0.19257939
22	0xbd2db0f3	-0.04240508
23	0xbb41cb15	-0.002957051
24	0x3d528556	0.05139669
25	0xbdc7c258	-0.09753865
26	0xbdda8154	-0.10669199
27	0x3de48c9f	0.11159634
28	0x3bf84d3a	0.0075775655
29	0x3e694bad	0.22782774
30	0xbe3ea7b6	-0.18618664
31	0x3e4bd415	0.19905122
32	0xbe38ac64	-0.18034512
33	0x3e311b84	0.17295653
34	0x3e563553	0.20918779
35	0x3e7c3d14	0.24632674
36	0x3d908bc6	0.0705791
37	0x3e033ce9	0.12816204
38	0xbe0d177d	-0.13778491
39	0x3e65228e	0.22376463
40	0x3e01a4c3	0.12660508
41	0x3e8a1bd2	0.2697435
42	0x3e80b05e	0.25134557
43	0xbe54f070	-0.20794845
44	0xbe37f16c	-0.17963189
45	0x3e74c6dd	0.23903985
46	0x3d885d77	0.06658452
47	0x3e779dd3	0.24181299
48	0x3e748094	0.23877174
49	0xbd89ba5a	-0.06724997
50	0x3e4477ce	0.19186327
51	0xbc43a60d	-0.011941445
52	0xbe12ca30	-0.14334941
53	0x3e7bfec3	0.24608903
54	0xbd951774	-0.07279864
55	0x3e15ad07	0.14616786
56	0xbd2b10e1	-0.041764144
57	0xbdbe25c8	-0.0928455
58	0x3e811ae2	0.25215822
59	0xbe0e3a3c	-0.13889402
60	0xbddbd6e0	-0.107343435
61	0xbe0f127b	-0.13971893
62	0xbe2fc0fe	-0.17163464
63	0xbe316566	-0.17323837
64	0x3dd614b6	0.10453169
65	0x3c8a49d2	0.016880903
66	0xbe4d884d	-0.20071526
67	0x3e5044c1	0.20338728
68	0xbe3d3481	-0.1847706
69	0xbd039065	-0.032120127
70	0x3e0c25b4	0.13686258
71	0x3c7dd221	0.015491993
72	0xbe57e062	-0.21081689
73	0x3d8efffe	0.069824204
74	0x3e16a69c	0.14711994
75	0xbe003376	-0.12519631
76	0x3e840901	0.2578812
77	0x3dc2ad45	0.09505705
78	0x3deef680	0.1166811
79	0xbe5033d5	-0.20332272
80	0xbd595d08	-0.053067237
81	0xbe001dd6	-0.12511382
82	0xbc5304d6	-0.012879571
83	0x3e84cca4	0.25937378
84	0xbe23a5fb	-0.15981285
85	0xbe673d1b	-0.22581904
86	0xbe2bdbf4	-0.16783124
87	0x3e4e6c36	0.20158467
88	0xbe3a972e	-0.18221733
89	0x3e0386ca	0.12844387
90	0xbda95e1c	-0.08269903
91	0xbd874e4f	-0.06606733
92	0x3e651c64	0.22374111
93	0x3c3df8e8	0.011594988
94	0xbcfd86da	-0.030948091
95	0xbcc2c0ec	-0.023773633
96	0xbc66b5f3	-0.014081466
97	0x3e462dca	0.19353405
98	0x3d7c9afc	0.061671242
99	0x3db1498e	0.086566076
100	0x3e84723b	0.258684
101	0xbd5c9db9	-0.053861354
102	0xbe631926	-0.22177562
103	0xbd89c18c	-0.06726369
104	0x3d71bb44	0.05901648
105	0xbdc57668	-0.09641725
106	0x3e0a3f42	0.13500693
107	0x3e35731a	0.17719689
108	0x3de8b9cd	0.11363564
109	0x3e83479a	0.25640565
110	0xbe3cb97d	-0.18430133
111	0x3c9abb3c	0.018888108
112	0xbe45f04b	-0.19329946
113	0x3dc1ec11	0.09468854
114	0x3e0e0b6d	0.13871546
115	0x3d815138	0.06314319
116	0xbd931ee0	-0.07183623
117	0xbe4ea510	-0.20180154
118	0xbbf90d7f	-0.007600486
119	0xbe2020af	-0.15637468
120	0x3e1899ec	0.14902467
121	0x3b18888c	0.0023274748
122	0xbdbd91fd	-0.09256361
123	0x3dd62714	0.10456672
124	0x3de8b19f	0.113620035
125	0x3d06264b	0.032751363
126	0xbe435eb6	-0.19079098
127	0xbe2115b4	-0.15730935
128	0x3e82ebea	0.25570613
129	0xbe433474	-0.19062978
130	0xbd0c6d37	-0.034283843
131	0xbd22808a	-0.039673366
132	0x3e3dd000	0.18536377
133	0xbd13ee70	-0.036116064
134	0xbe084684	-0.1330815
135	0xbd9623bd	-0.07331035
136	0x3cf9f1e4	0.03051085
137	0x3e05b65d	0.13057847
138	0x3e16c789	0.14724554
139	0x3e02ed1a	0.1278576
140	0xbd9f1a6d	-0.07768712
141	0xbd051fe7	-0.032501128
142	0x3e0ac2b0	0.1355083
143	0xbdf299c1	-0.118457325
144	0xbd4d9945	-0.050194997
145	0xbe328b92	-0.17436054
146	0xbd74e5c2	-0.059789427
147	0x3e2a8030	0.16650462
148	0x3e8ad04c	0.27112043
149	0xbd2c6844	-0.042091623
150	0x3b91a2f2	0.0044444734
151	0x3e63a8f0	0.22232413
152	0x3dbb32a1	0.09140516
153	0x3e0c3772	0.13693026
154	0x3cf83fe0	0.030303895
155	0xbe39e31a	-0.18153039
156	0x3e82d2b9	0.25551394
157	0x3dd2061d	0.10255072
158	0xbe3fbc86	-0.1872426
159	0xbddb451a	-0.107065395
160	0x3d31d3b2	0.04341478
161	0x3e6d9af0	0.23203635
162	0x3e804fdb	0.25060925
163	0xbda5bbe9	-0.08092482
164	0x3e2c10ca	0.1680328
165	0x3dfb7520	0.12278199
166	0x3daf643c	0.0856404
167	0xbd8d6253	-0.069035195
168	0xbe5b01b0	-0.21387362
169	0x3e138421	0.14405872
170	0x3e5c45ee	0.21511051
171	0xbe35f8a1	-0.17770626
172	0xbe42b79d	-0.19015355
173	0xbe452492	-0.19252232
174	0x3d487a7c	0.048944935
175	0x3e2220a8	0.1583277
176	0x3e1f8523	0.15578131
177	0x3d5cf4f0	0.053944528
178	0xbdf1ef55	-0.11813227
179	0xbe54d48f	-0.2078421
180	0x3e3b7bba	0.18308917
181	0x3ca53d44	0.020170815
182	0x3e489624	0.19588524
183	0xbddf8bc4	-0.1091533
184	0xbe228324	-0.15870339
185	0x3e20c2ed	0.15699358
186	0xbdb2bb15	-0.08727089
187	0x3e6620a4	0.22473389
188	0xbcba3fdc	-0.022735529
189	0x3e26643f	0.16249178
190	0x3de9ab6d	0.1140965
191	0xbe141727	-0.14461957
192	0xbdfe5645	-0.12418798
193	0x3e5d565a	0.21614972
194	0x3e712cc3	0.23552231
195	0xbe517f5f	-0.20458744
196	0xbc4cda63	-0.012503239
197	0x3df5ce69	0.1200226
198	0xbe58afe7	-0.21160851
199	0xbe55302d	-0.20819159
200	0x3e411696	0.18856272
201	0x3c036eb8	0.008022003
202	0x3ce35fb0	0.027755588
203	0x3e36d227	0.17853604
204	0x3e195a4c	0.14975852
205	0xbe44a225	-0.19202478
206	0x3e12c1ef	0.14331792
207	0x3e083e2c	0.13304967
208	0x3e126da3	0.14299636
209	0x3dd3affd	0.103363015
210	0xbe4726eb	-0.1944844
211	0xbe470649	-0.19435991
212	0xbd71d284	-0.059038654
213	0xbdbeac13	-0.09310164
214	0x3e257bd9	0.16160525
215	0x3d0f1494	0.034931734
216	0x3d946fd4	0.07247892
217	0xbd8ca702	-0.06867792
218	0xbd6bca45	-0.057565946
219	0x3e5eeace	0.21769258
220	0x3e4cca15	0.19998963
221	0x3e513a21	0.2043233
222	0xbe4f15a8	-0.20223105
223	0x3dd10c04	0.1020737
224	0x3dc90d82	0.098170295
225	0xbb47a8ac	-0.0030465527
226	0x3e4c4786	0.19949159
227	0xbdf0d439	-0.11759228
228	0xbe43a86f	-0.19107221
229	0x3e3935cd	0.1808693
230	0xbcdb4984	-0.026768453
231	0xbe085376	-0.13313088
232	0x3e2fb3ba	0.17158404
233	0xbe2ee394	-0.17079002
234	0x3e04c6ac	0.12966412
235	0x3dcb7e94	0.09936252
236	0xbc837576	-0.01604722
237	0xbd6da9c0	-0.058023214
238	0xbda7d841	-0.08195544
239	0xbdfcc9b8	-0.12343162
240	0x3e17f0a7	0.14837895
241	0xbca7ab6a	-0.020467479
242	0x3d9cf54b	0.076639734
243	0x3d2f7f37	0.04284593
244	0x3dac3dc7	0.084102206
245	0xbe247abc	-0.16062444
246	0xbd7d451b	-0.061833482
247	0xbd901ab4	-0.07036343
248	0x3d15c63f	0.036566015
249	0xbdbc709b	-0.09201165
250	0x3d419911	0.047265116
251	0x3ba4e02d	0.0050316066
252	0x3d6d01e9	0.05786315
253	0x3db8cf4a	0.09023912
254	0xbde9c8f4	-0.11415282
255	0x3dd0587d	0.10173128

denoise_model.enc.mu.weight f4 [20, 256]
0	0xbc0ed026	-0.008716619
1	0x3db1e7d7	0.08686798
2	0x3c9e1c94	0.019300736
3	0xbb718408	-0.0036852378
4	0x3cf1ae0b	0.029501935
5	0x3ce10e7c	0.027472727
6	0xbc2fbd6d	-0.010726315
7	0x3aea4cc1	0.0017875658
8	0x3d80d152	0.06289925
9	0x3ce2575a	0.027629543
10	0x3c8988b7	0.016788824
11	0xbc86ff4d	-0.016479159
12	0x3d67df3e	0.056609385
13	0x3d67098c	0.05640559
14	0x3d66b58b	0.056325477
15	0xbd3c7118	-0.046006292
16	0x3d38af24	0.045088902
17	0x3dc06bb6	0.09395544
18	0x3d949718	0.07255381
19	0x3d86cf8d	0.06582556
20	0x3da735d4	0.08164564
21	0x3d9f06c1	0.0776496
22	0x3d03fce7	0.03222361
23	0x3c8d4d0f	0.017248658
24	0x3cfc6fd4	0.030815043
25	0xbcca70b8	-0.024711952
26	0x3cda3db3	0.026640749
27	0x3d80440b	0.06262978
28	0xbca7b1e5	-0.020470569
29	0x3bd8ea58	0.006619733
30	0xbd0b84b1	-0.03406209
31	0xba5ab395	-0.00083428
32	0x3d62b729	0.055350456
33	0x3cb279ef	0.021786658
34	0x3c3e0846	0.011598652
35	0x3c85f2e6	0.016351175
36	0x3cf1526e	0.02945825
37	0x3d09775f	0.033561107
38	0x3d57a7ec	0.052650377
39	0x3d966488	0.073433936
40	0x3d806e92	0.062710896
41	0x3cef2bac	0.029195629
42	0xbbc9ce46	-0.006158623
43	0x3c95c758	0.018283531
44	0xbd088a5d	-0.03333508
45	0x3dae564f	0.08512556
46	0x3a3f8eb9	0.0007307339
47	0x3d3c2efb	0.04594324
48	0x3d3fca6d	0.046823908
49	0xbcef329a	-0.029198933
50	0xbc3aea25	-0.0114083635
51	0x3d112e98	0.035444826
52	0xbccd2719	-0.025043057
53	0x3c8ca62b	0.017169079
54	0xbcf04db0	-0.02933392
55	0x399d2ded	0.0002997959
56	0xbd4409c3	-0.047860872
57	0x3aa7484f	0.0012762639
58	0x3d4ce667	0.050024416
59	0x3db64cb1	0.089013465
60	0x3d424712	0.04743106
61	0x3cdddab9	0.027081834
62	0x3dae0336	0.08496706
63	0xbc9b6714	-0.01897005
64	0x3d7cbc95	0.061703283
65	0x3c86ca92	0.016454015
66	0x3bb606aa	0.0055549936
67	0x3c970ca9	0.018438654
68	0xbaea4765	-0.001787406
69	0x3baa3863	0.00519471
70	0x3cd2ac3a	0.02571689
71	0x3cdfdb04	0.027326114
72	0x3d207fe7	0.039184477
73	0x3bf40ac3	0.007447572
74	0xbc9a3c46	-0.018827569
75	0x3ae55fc2	0.0017499852
76	0x3d59ceb0	0.05317563
77	0x3d89ccaa	0.0672849
78	0x3d44005c	0.047851905
79	0xbba85063	-0.005136536
80	0x3da86baa	0.0822366
81	0xbcc6ab1e	-0.024251517
82	0xbc05b106	-0.008159881
83	0x3d3aea6e	0.045633726
84	0x3d5efa33	0.054437827
85	0x3d7fe454	0.06247361
86	0x3c93aff5	0.018028239
87	0x3d897ef4	0.067136675
88	0x3d8ecc0c	0.069725126
89	0xbcd732b8	-0.026269302
90	0xbc944e7c	-0.01810383
91	0xbbc4a526	-0.0060011325
92	0x3d4e4f65	0.050368685
93	0x3bce8f4e	0.0063037043
94	0x3d6beed4	0.05760081
95	0xbc9ab508	-0.01888515
96	0xbc3fae3d	-0.0116992565
97	0x3cb4ccff	0.022070406
98	0xbcf4af5e	-0.029868778
99	0x3d869d38	0.06572956
100	0x3d8f6225	0.070011415
101	0x3d43eab4	0.047831252
102	0x3c88f009	0.01671602
103	0x3cb31f14	0.021865405
104	0xbd0b35cd	-0.033986855
105	0xbc9fd490	-0.019510537
106	0x3d8a2e0c	0.06747064
107	0x3c906e07	0.01763059
108	0x3d5bb668	0.053640753
109	0x3ca396a1	0.019969286
110	0x3d5c3cd7	0.05376896
111	0x3d4bf840	0.049797297
112	0x3cf8175b	0.030284574
113	0xbc5dd1ec	-0.013538819
114	0x3d626f59	0.05528197
115	0x3d4f6373	0.05063195
116	0x3d93124c	0.07181224
117	0xbc2a22fc	-0.0103843175
118	0x3db01dc3	0.085994266
119	0x3d440a88	0.047861606
120	0x3d30a662	0.043127425
121	0x3d815925	0.06315831
122	0x3d417694	0.047232226
123	0x3d4b1de5	0.049589057
124	0xbc8c1d6d	-0.017103875
125	0xbc132036	-0.008979848
126	0xbd0a1138	-0.033707827
127	0xbc3f3088	-0.011669286
128	0x3cfd4ce4	0.030920453
129	0xbcd5d5b3	-0.026102876
130	0x3ccafdde	0.024779256
131	0xbcb4021c	-0.021973662
132	0x3d29091d	0.041268457
133	0x3d729a77	0.05922934
134	0x3d841f21	0.0645125
135	0x3da7068a	0.08155544
136	0x3d14fe03	0.036375057
137	0xbcb98eea	-0.022651155
138	0xbc1eeddb	-0.009700264
139	0xbca04323	-0.019563263
140	0x3d8a71be	0.06759976
141	0x3cba39c7	0.022732629
142	0xbca6b011	-0.020347627
143	0x3da05d49	0.07830293
144	0x3d3ffcdc	0.046872005
145	0x3d93fbcf	0.07225763
146	0x3d5b6631	0.053564254
147	0xbaeec9c7	-0.0018218093
148	0x3d167ca1	0.03673995
149	0x3dd4feef	0.10400187
150	0x3c52015f	0.01281771
151	0x3d25e903	0.04050542
152	0x3c2f2319	0.01068952
153	0x3d8be92a	0.06831582
154	0x3c26a0aa	0.010170141
155	0xbbcc870a	-0.006241684
156	0xbc63675a	-0.013879621
157	0x3c4a5f06	0.012351757
158	0x3cdd5c5b	0.027021578
159	0x3d93f156	0.072237656
160	0xbcfe9dda	-0.031081129
161	0x3d1f0537	0.038823333
162	0xbd086cb2	-0.033306785
163	0x3d28a468	0.041172415
164	0xbcbb8353	-0.022889769
165	0xbb3a391d	-0.002841539
166	0x3b8563c3	0.0040707304
167	0xbceb272f	-0.028705208
168	0xbbbac9a3	-0.0057003065
169	0xbc626333	-0.013817596
170	0xbbaeb260	-0.0053313226
171	0x3d5d9426	0.054096363
172	0x3c34d62c	0.011037391
173	0x3d516d78	0.05112979
174	0x3ac4fed8	0.0015029563
175	0x3d9db454	0.077004105
176	0x3d345110	0.04402262
177	0x3d94a1ce	0.07257424
178	0x3d69cf6e	0.057082586
179	0x3b94729e	0.004530265
180	0x3da41995	0.08012692
181	0x3d88383b	0.0665135
182	0x3d86eb19	0.0658781
183	0x3b58b0fd	0.0033064478
184	0x3c9c3ee8	0.019072965
185	0x3d8a8eb9	0.067655034
186	0x3d40b956	0.04705175
187	0x3d15cda0	0.036573052
188	0xbc11e7ea	-0.00890539
189	0x3d5273da	0.051380016
190	0x3d0dad94	0.034589365
191	0xbcb0da23	-0.02158839
192	0xbafb1678	-0.0019156476
193	0x3d37a2a3	0.044832837
194	0x3d49bb6f	0.049251016
195	0xbce88074	-0.028381564
196	0xbbf04167	-0.0073320153
197	0xbc792a3b	-0.015207822
198	0xbb98beb4	-0.0046614055
199	0x3d91d745	0.071211375
200	0x3d0b9cae	0.03408497
201	0x3cb59e9c	0.022170357
202	0xbcb45b78	-0.022016272
203	0x3d3e4b0e	0.046458296
204	0xbc010b8b	-0.007876287
205	0x3db29927	0.08720618
206	0xba06d87d	-0.00051439536
207	0x39e00710	0.0004272987
208	0x3d10e39a	0.035373308
209	0xbb43030e	-0.002975646
210	0x3d27ce12	0.04096801
211	0x3d409f08	0.047026664
212	0x3d6c31f7	0.057664838
213	0xbb50ab1a	-0.0031840266
214	0x3d2810b4	0.041031554
215	0x3d7ed9ba	0.06221936
216	0xbc66d3e5	-0.0140886055
217	0x3cd87987	0.026425136
218	0x3d96e843	0.07368519
219	0xbd2339cf	-0.039850052
220	0x3d2e355e	0.042531364
221	0x3d7c311d	0.061570276
222	0x3d5fe1ed	0.05465882
223	0x3d47444a	0.04864911
224	0x3d02719b	0.031846624
225	0x3ceeaca2	0.029135052
226	0x3d032db7	0.03202602
227	0x3b40ef13	0.0029439374
228	0x3cdcb45f	0.026941476
229	0x3bb42a50	0.005498208
230	0x3d582abe	0.052775137
231	0x3c33e3b6	0.0109795835
232	0xbc01ed9d	-0.007930187
233	0x3d047f9f	0.03234827
234	0x3ce41a00	0.027844429
235	0x3d606957	0.05478796
236	0x3d855706	0.06510739
237	0x3d6531b3	0.0559556
238	0xbc83ac11	-0.016073259
239	0x3d091f85	0.033477325
240	0xbb9a801f	-0.0047149803
241	0x3d5e59a6	0.054284714
242	0xbbfaaed0	-0.007650234
243	0x3d51ead2	0.051249333
244	0xbc0945cd	-0.008378458
245	0xbcdf7f8c	-0.027282499
246	0xbc912871	-0.01771948
247	0xbc905266	-0.017617416
248	0x3ca9d5ba	0.020731796
249	0xbd2b7122	-0.04185594
250	0x3d589bd5	0.052882988
251	0xbcafb427	-0.021448208
252	0x3d8fe109	0.07025344
253	0x3c99d8b1	0.018780084
254	0xbc45067b	-0.012025471
255	0xbca8ff03	-0.020629412

denoise_model.enc.mu.bias f4 [20]
0	0x3d119ec3	0.035551798
1	0xbd255c87	-0.040371444
2	0xbd9d069e	-0.07667278
3	0xbb25e947	-0.0025316046
4	0xbd2d2a15	-0.04227646
5	0x3d1c3b16	0.038142286
6	0xbd92fdb7	-0.071772985
7	0x3d1f74d3	0.03892977
8	0x3cf956e7	0.030436946
9	0xbc8d70d8	-0.017265722
10	0xbda08504	-0.07837871
11	0x3d36d527	0.04463687
12	0xbd13cd30	-0.036084354
13	0xb711fe96	-8.701949e-06
14	0xbc8841c4	-0.016632922
15	0x3d3cbab7	0.046076503
16	0xbccda230	-0.025101751
17	0x3aa52f36	0.0012602571
18	0xbd514c9b	-0.051098447
19	0x3d0c5ba7	0.034267094

denoise_model.enc.var.weight f4 [20, 256]
0	0x3cfea3a2	0.031083886
1	0xbd285343	-0.04109503
2	0xbbf491c2	-0.0074636647
3	0x3cfad66d	0.030619824
4	0x3d2e3798	0.042533487
5	0x3cf575ab	0.029963335
6	0xbd797821	-0.06090558
7	0xbd02cd19	-0.031933878
8	0x3d402ca8	0.046917588
9	0x3d399a47	0.045313146
10	0xb9010181	-0.00012302959
11	0x3c9d2ac8	0.019185439
12	0xbd295044	-0.041336313
13	0xbd664726	-0.056220196
14	0xbd108327	-0.035281327
15	0xbcc67806	-0.024227154
16	0xbcc8c61c	-0.024508528
17	0xbc769467	-0.01505003
18	0xbd225c27	-0.039638665
19	0xbd7013da	-0.058612682
20	0x3bb25dc6	0.0054433076
21	0x3d22bb90	0.039729655
22	0x3b77be55	0.0037802656
23	0xbc13353c	-0.00898486
24	0xbd51e739	-0.0512459
25	0xbce92ed6	-0.028464716
26	0x3d3caee3	0.046065222
27	0x3ce1dab4	0.027570106
28	0x3d87a1fb	0.06622692
29	0xbbdc84da	-0.0067297043
30	0x3d0ef174	0.034898236
31	0xbd28fa9f	-0.041254636
32	0xbc743ad2	-0.014906602
33	0xbd44936d	-0.04799216
34	0xbc4ecb17	-0.012621663
35	0xbd4e2c2c	-0.050335094
36	0x3d903e76	0.070431635
37	0xbcf3609d	-0.029709155
38	0x3d685c08	0.056728393
39	0x3d017ffb	0.031616192
40	0x3cc16366	0.023606967
41	0xbcbf3fd7	-0.02334587
42	0x3d7315c6	0.059346937
43	0xbcceb01d	-0.025230462
44	0x3cdeefad	0.027213896
45	0x3d068048	0.032837182
46	0xbd30ba6f	-0.043146547
47	0x3cdcc09f	0.026947318
48	0x3d46193f	0.04836392
49	0xbaa9e069	-0.0012960556
50	0xbd277e9d	-0.040892232
51	0x3c986124	0.018601008
52	0xbcff8643	-0.03119195
53	0x3d4a968f	0.04945999
54	0x3cfa0058	0.030517742
55	0x3c02a550	0.007973984
56	0xbd636a62	-0.055521376
57	0x3cfffeee	0.03124949
58	0x3d8688cf	0.06569063
59	0x3d0fc6d8	0.03510174
60	0xbd324f6c	-0.043532774
61	0x3d19cec4	0.037550703
62	0xbd7b8d30	-0.061413944
63	0x3d51cf2f	0.051222976
64	0x3c4c6abe	0.012476621
65	0xbd61429f	-0.054995175
66	0x3b290888	0.0025792439
67	0x3c80e188	0.015732542
68	0x3cbaa0b2	0.022781704
69	0xbbf2a7bc	-0.0074052494
70	0xba6522f1	-0.00087408634
71	0x3d327cad	0.04357593
72	0xbd390489	-0.04517034
73	0x3d6355b5	0.05550166
74	0xbd3e4231	-0.046449844
75	0x3c9a82de	0.01886123
76	0x3d010231	0.03149623
77	0x3d7aea47	0.06125858
78	0xbd6c4f92	-0.05769307
79	0x3d8b0e7b	0.06789871
80	0x3d16f5ad	0.03685539
81	0x3cd08caf	0.025457708
82	0x3d629871	0.05532116
83	0x3d042f3d	0.032271612
84	0x3d311221	0.04323018
85	0x3caaac03	0.020833975
86	0xbcfc024c	-0.030762814
87	0xbce0a817	-0.027423901
88	0xbd326b91	-0.043559615
89	0xbd0ee77a	-0.034888722
90	0x3d2158af	0.039391216
91	0xbd8446e8	-0.06458837
92	0x3ce158fd	0.027508253
93	0xbd540153	-0.051759075
94	0xbc6259c6	-0.013815349
95	0xbd2b0def	-0.041761335
96	0x3bc8d309	0.006128673
97	0xbcff580d	-0.031169916
98	0xbc72d72a	-0.014821807
99	0xbd784864	-0.060615912
100	0x3d2752c4	0.040850416
101	0xbd03eebf	-0.032210108
102	0xbbd376e1	-0.0064533805
103	0x3d3e1361	0.0464052
104	0xbd73396a	-0.059380926
105	0x3ccca8f3	0.024982905
106	0x3d4c6472	0.04990048
107	0xbc0a4f0e	-0.0084417
108	0xbc7f13b2	-0.015568661
109	0xbd078ace	-0.03309136
110	0xbcb2a9ad	-0.021809423
111	0x3ba8da62	0.0051529864
112	0x3c8ac86a	0.016941268
113	0xbcd2e4c9	-0.025743859
114	0x3cc24b76	0.023717623
115	0xbd64fa30	-0.05590266
116	0xbc320fb7	-0.0108680045
117	0x3cd160fb	0.02555894
118	0x3d7f1a93	0.062281203
119	0x3d53d16b	0.05171339
120	0x3d550811	0.052009646
121	0x3a6402d1	0.00086979294
122	0xbd3563c4	-0.044284597
123	0x3d18d005	0.037307758
124	0x3cb67261	0.022271337
125	0xbcdd5970	-0.027020186
126	0x3cf48dcf	0.029852776
127	0xbcc4ef33	-0.02403984
128	0x3b7381fa	0.003715633
129	0xbcff12d2	-0.031136904
130	0xbd37d777	-0.044883218
131	0x3d74d94c	0.059777543
132	0xbc16f388	-0.009213336
133	0xbd1a680a	-0.037696876
134	0x3d3a53ed	0.045490194
135	0x3d035bb4	0.032069877
136	0xbc8f061f	-0.017458973
137	0x3d174a46	0.036936067
138	0x3cf96903	0.030445581
139	0x3cc093b5	0.023507932
140	0xbbcbc944	-0.006219061
141	0x3ce103fa	0.027467716
142	0xbc06c4c3	-0.008225623
143	0x3d20267a	0.039099194
144	0xbab07856	-0.0013463597
145	0x3d49e8dc	0.049294338
146	0x3d62dfa6	0.05538907
147	0xb9f2569a	-0.0004622236
148	0xbd1a273a	-0.037635066
149	0xbcbf174b	-0.023326537
150	0xb92d9d25	-0.00016557107
151	0x3a5ad0e3	0.00083471666
152	0xbca3036d	-0.019899094
153	0x3a9729df	0.0011532864
154	0x3c238ee4	0.009982798
155	0xbd7b564a	-0.06136159
156	0x3b367f40	0.0027846843
157	0x3b4438e9	0.0029941148
158	0x3d418336	0.047244273
159	0xbc6eb393	-0.014569181
160	0xbd1627e7	-0.036659148
161	0x3d0eeef3	0.03489585
162	0x3c4af976	0.012388578
163	0x3d27d9a8	0.040979058
164	0x3c294764	0.010331962
165	0x3d503599	0.050832365
166	0x3d5e074c	0.054206178
167	0xbd5adc9b	-0.053433042
168	0x3cc2f14a	0.023796696
169	0xbcf742aa	-0.030183155
170	0x3ccab8b8	0.024746284
171	0x3ce341dc	0.027741365
172	0x3b9df7b3	0.004820788
173	0xbd1edbd6	-0.03878387
174	0x3d5abf9d	0.053405393
175	0x3d1bcb1d	0.0380355
176	0x3c0c5a34	0.008566428
177	0x3c2ea96e	0.010660512
178	0x3b2a3825	0.0025973406
179	0xbc0dc800	-0.008653641
180	0xbb678a56	-0.0035330257
181	0xbd2c6918	-0.042092413
182	0x3d5957bb	0.053062182
183	0x3d16b8cc	0.03679733
184	0xbc45704b	-0.0120506985
185	0xbd48a58b	-0.048986
186	0xbd4d9fa0	-0.05020106
187	0x3cecebcb	0.028921029
188	0x3d3ca99f	0.0460602
189	0xbd3067ac	-0.04306762
190	0x3d2aa8f3	0.04166503
191	0xbd2d938d	-0.042377044
192	0x3b84e4e4	0.004055606
193	0xb9a8254d	-0.00032071248
194	0x3d2dbb48	0.042414933
195	0x3d6b51d6	0.05745109
196	0x3d841fb5	0.0645136
197	0xbcb20560	-0.021731079
198	0xbd3cc67f	-0.046087738
199	0x3c1c6b33	0.009547043
200	0x3c57e7d8	0.013177834
201	0x3d526dd4	0.05137427
202	0x3d655149	0.055985723
203	0xbd489374	-0.048968747
204	0xbbb8c139	-0.0056382683
205	0x3cd39d58	0.025831863
206	0x3d18e349	0.03732613
207	0x3cfc4415	0.030794183
208	0x3b068851	0.0020528028
209	0xbc312820	-0.010812789
210	0x3cc1568d	0.023600841
211	0x3cf222eb	0.029557666
212	0x3d0507cd	0.032478143
213	0xbb0e36c9	-0.0021700135
214	0xbce4a570	-0.027910918
215	0x3c433fe7	0.011917091
216	0x3d310ad1	0.043223206
217	0xbd16a018	-0.03677377
218	0x3c831b52	0.016004238
219	0x3d469884	0.048485294
220	0x3ca44845	0.020053992
221	0x3d310f76	0.043227635
222	0x3d09606f	0.033539232
223	0x3d0a376d	0.033744264
224	0xbc55efce	-0.013057662
225	0x3d5a3106	0.05326941
226	0xbd0bd74e	-0.034140877
227	0xbc9eee30	-0.019400686
228	0xba09a0eb	-0.0005250114
229	0x3d08b2d3	0.033373665
230	0x3b17b46f	0.0023148318
231	0x3d131bbf	0.035915133
232	0x3bc3efce	0.0059795147
233	0x3cabb8e2	0.020962182
234	0xbc5d9247	-0.013523645
235	0x3bf5e2db	0.00750385
236	0xbd1a73a6	-0.037707947
237	0x3b510f71	0.0031900073
238	0xbc77f2cb	-0.01513357
239	0xbd52e7d6	-0.051490627
240	0x3d1644cc	0.036686704
241	0x3cb486a9	0.022036867
242	0xbc3ae3bd	-0.011406836
243	0x3c919ef0	0.017775983
244	0x3d82bdf7	0.06383889
245	0x3d3e5b90	0.04647404
246	0xbbdd0c84	-0.0067458767
247	0x3d108e04	0.035291687
248	0x3d8214d9	0.063516326
249	0x3cd1477d	0.025546784
250	0x3cff7d74	0.03118775
251	0xbbc9d2c4	-0.0061591584
252	0x3cc0e82c	0.023548208
253	0xbd3ff5aa	-0.046865143
254	0x3d72c742	0.05927206
255	0x3cfb7db1	0.030699583

denoise_model.enc.var.bias f4 [20]
0	0x3d6b79e4	0.05748929
1	0xbcc3b94e	-0.023892071
2	0xbd49f25e	-0.049303405
3	0xbd365ca7	-0.044521954
4	0x3d00dccc	0.03146057
5	0xbd2540e7	-0.0403451
6	0xbce16d67	-0.027517987
7	0xbd13f0d7	-0.036118355
8	0xbd14d6f2	-0.0363378
9	0x3c37e8ec	0.0112249665
10	0xbce51e64	-0.027968593
11	0x3cb3fea1	0.021972002
12	0x3c500427	0.0126963025
13	0x3c1a10e7	0.009403444
14	0xbd6e3f99	-0.05816612
15	0x3c0f0685	0.008729582
16	0xbd25b50d	-0.040455867
17	0x3cae7f9c	0.021301083
18	0xbc368ee9	-0.011142471
19	0x3c934e56	0.01798169

denoise_model.dec.linear.weight f4 [256, 20]
0	0xbd7ad6fc	-0.06124018
1	0xbddbaef4	-0.10726729
2	0x3e1cb051	0.15301634
3	0x3d95023c	0.07275817
4	0xbb565338	-0.003270341
5	0x3e58f158	0.21185815
6	0x3ddcfdb1	0.10790575
7	0xbe070736	-0.13186345
8	0x3e4d2818	0.20034826
9	0x3e226b1b	0.1586117
10	0xbdde7919	-0.10862941
11	0x3e527d91	0.20555712
12	0x3e1f2fd2	0.15545586
13	0xbdca2689	-0.09870631
14	0x3da2f713	0.07957282
15	0xbbfa7902	-0.00764382
16	0xbdd675b4	-0.10471669
17	0xbde7d1a0	-0.1131928
18	0x3e22499a	0.1584839
19	0x3d99f4d4	0.075174004
20	0x3de950bd	0.11392353
21	0x3d8d643a	0.06903882
22	0xbe065a59	-0.13120402
23	0x3e28ba00	0.16477203
24	0x3e34731d	0.17622037
25	0xbdd905f6	-0.1059684
26	0xbde55e0d	-0.111995794
27	0x3dbf2609	0.093334265
28	0x3d4a263f	0.04935288
29	0x3e34e6ef	0.17666219
30	0x3de90164	0.11377218
31	0x3e3e6e41	0.18596746
32	0x3e2fbf13	0.17162733
33	0xbd3488be	-0.04407572
34	0xbe05fa34	-0.13083726
35	0x3dc05883	0.09391882
36	0xbde360ed	-0.111024715
37	0xbe72a1f4	-0.23694593
38	0x3da2c4fb	0.07947727
39	0x3c019121	0.007908137
40	0x3d2ff2e3	0.042956244
41	0xbe4561cf	-0.19275592
42	0x3d981908	0.07426649
43	0x3c0c9d02	0.008582355
44	0x3dcc2395	0.09967724
45	0xbe434dbf	-0.19072627
46	0xbd774583	-0.060369026
47	0x3e0cc5ee	0.13747379
48	0x3e186df5	0.14885695
49	0x3d8a2540	0.06745386
50	0x3d926b27	0.07149344
51	0xbe2c362f	-0.16817544
52	0xbd28ceb2	-0.041212745
53	0xbe154814	-0.14578277
54	0x3bdc4796	0.006722401
55	0xbe3a4eac	-0.18194073
56	0x3aad6af6	0.0013230729
57	0xbe1f40a1	-0.15551998
58	0x3e21dda2	0.15807202
59	0xbc29b143	-0.010357204
60	0x3e12906a	0.14312902
61	0x3e4ab376	0.19795021
62	0xbdc7f2f4	-0.097631365
63	0x3e1aa133	0.15100555
64	0x3d1276a6	0.035757683
65	0x3d55ffe2	0.052245982
66	0xbe1ebdff	-0.15502165
67	0x3e0e6f75	0.13909705
68	0x3e738f45	0.23785122
69	0xbdf96b1e	-0.12178634
70	0x3c7809d9	0.015139067
71	0x3d8f14ca	0.06986387
72	0xbc4402bf	-0.011963545
73	0x3babf3a0	0.005247548
74	0xbd3ea35e	-0.046542518
75	0x3e37ed6f	0.17961667
76	0xbaa81f46	-0.0012826703
77	0xbd9de692	-0.077099934
78	0xbd89fc92	-0.06737627
79	0xbdb0cee1	-0.08633209
80	0xbe492002	-0.19641116
81	0xbe48576b	-0.19564597
82	0x3dbab8ce	0.0911728
83	0x3dae9f9f	0.08526539
84	0xbe01cefb	-0.12676613
85	0xbd0e71be	-0.03477644
86	0x3d97ff94	0.074217945
87	0x3d54539b	0.051837545
88	0xbd80fc89	-0.06298167
89	0xbc91ce68	-0.017798617
90	0xbcf9b2e7	-0.030480815
91	0x3e074b30	0.13212276
92	0x3e6bc5f1	0.23024727
93	0x3db394b7	0.087685995
94	0x3e0f9c53	0.14024477
95	0x3e4cffc4	0.20019442
96	0x3e00adfc	0.1256637
97	0xbe585be6	-0.21128806
98	0xbe35d4a0	-0.17756891
99	0xbe1eb443	-0.15498452
100	0x3d2bef63	0.041976344
101	0xbe3b3c70	-0.18284774
102	0xbdd7b791	-0.105330594
103	0x3c845547	0.016153945
104	0xbbc7295b	-0.006077928
105	0x3d82ff9f	0.06396412
106	0x3df206dd	0.11817715
107	0xbe1c29dd	-0.15250345
108	0xbe004685	-0.12526901
109	0xbdc8df5c	-0.098082274
110	0xbd5fd0f1	-0.05464262
111	0xbd579fbb	-0.052642565
112	0xbd68af6b	-0.056807917
113	0x3dc92bf2	0.09822835
114	0x3e28aec7	0.16472922
115	0xbd61349d	-0.054981817
116	0xbd96a16d	-0.07355008
117	0xbe1bcb58	-0.15214288
118	0x3d4d8293	0.050173353
119	0xbe57463c	-0.21022886
120	0xbd9f4336	-0.07776491
121	0x3d2b9ced	0.041897703
122	0x3e3faa91	0.1871741
123	0x3c15a945	0.009134595
124	0xbd4e12d2	-0.050310917
125	0xbd32b4e7	-0.043629553
126	0xbe6de34a	-0.23231235
127	0x3e0a6973	0.13516788
128	0xbded5c56	-0.11589877
129	0xbe2f8f9e	-0.1714463
130	0xbc59e1e8	-0.013298489
131	0xbd7fea46	-0.06247928
132	0x3e2d9b61	0.16953804
133	0x3e26b23e	0.16278931
134	0xbdb5d656	-0.08878772
135	0xbdf2afff	-0.11849975
136	0xbd6cfe66	-0.0578598
137	0xbe0493b6	-0.12946972
138	0xbe06a414	-0.13148528
139	0x3e2859da	0.16440526
140	0x3e425309	0.18976988
141	0xbd0546b8	-0.032538146
142	0x3e318e80	0.17339516
143	0x3d35978c	0.04433398
144	0xbe0c5e9a	-0.13707963
145	0xbd152f9b	-0.036422353
146	0x3c61c12e	0.013778968
147	0x3e1f2520	0.15541506
148	0xbe15f18e	-0.14642927
149	0x3ce24677	0.02762149
150	0x3db683d1	0.08911861
151	0xbdf744d7	-0.12073677
152	0x3e45085a	0.19241467
153	0x3ca0e6c9	0.019641297
154	0xbe166d98	-0.14690244
155	0x3e576faf	0.21038698
156	0x3d005977	0.03133532
157	0x3e404cd9	0.18779315
158	0x3e2affb3	0.16699104
159	0x3e571dff	0.21007536
160	0x3c554e6d	0.013019186
161	0x3c8c03b3	0.017091608
162	0x3d3c90ca	0.04603652
163	0x3e16dff5	0.1473387
164	0xbe54f897	-0.20797954
165	0xbd3e7222	-0.046495564
166	0xbe156d76	-0.14592537
167	0xb98304d6	-0.0002498987
168	0xbe479de3	-0.19493823
169	0x3d7f066a	0.062261976
170	0xbe39bb54	-0.18137866
171	0xbe53d298	-0.20685804
172	0x3e636cc3	0.22209458
173	0xbdc38eff	-0.09548759
174	0xbd32e431	-0.04367465
175	0x3d87f2b2	0.06638087
176	0xbd814ed0	-0.063138604
177	0x3d85bc7f	0.065300934
178	0xbe727ff6	-0.23681626
179	0xbd2cf6fc	-0.04222773
180	0xbe4898ed	-0.19589587
181	0x3da430f2	0.08017148
182	0xbd387448	-0.04503277
183	0xbe36ff91	-0.17870928
184	0x3e266ff3	0.16253643
185	0xbe5bbd45	-0.2145892
186	0x3e4bf15b	0.19916289
187	0x3c5ec195	0.013595958
188	0xbd906b75	-0.07051746
189	0xbdd0ce37	-0.10195582
190	0xbdb6ece2	-0.089319006
191	0x3e34ecd5	0.17668469
192	0x3d0e5b0e	0.034754805
193	0x3e29f5c7	0.16597663
194	0x3d34e299	0.044161413
195	0x3e35adab	0.1774203
196	0x3d94eaa8	0.0727132
197	0xbe1b5624	-0.15169579
198	0x3dc4761e	0.095928416
199	0x3e15ab5c	0.1461615
200	0x3d367273	0.04454274
201	0xbd9867d2	-0.07441677
202	0x3e34af78	0.17645061
203	0x3e5bfd03	0.21483235
204	0x3e127e52	0.14306
205	0x3e2d69b1	0.1693485
206	0x3dc18205	0.094486274
207	0x3e591463	0.21199183
208	0x3e0d77a7	0.13815175
209	0xbe56d7f5	-0.20980819
210	0x3e48e228	0.19617522
211	0xbcc2faaf	-0.023801176
212	0xbe5a0d07	-0.21294032
213	0xbe05e19d	-0.13074346
214	0x3e681332	0.22663572
215	0x3e164ee8	0.14678538
216	0xbdaaace9	-0.08333761
217	0xbe4cb64d	-0.19991417
218	0xbcfa186d	-0.030529225
219	0xbd85cc66	-0.065331265
220	0xbdbc0861	-0.09181286
221	0xbe5a9dae	-0.21349213
222	0x3e35b566	0.1774498
223	0xbe4d44f0	-0.20045829
224	0xbe29fec1	-0.16601087
225	0x3d1a7f06	0.037718795
226	0x3d3c6af0	0.04600042
227	0xbe4ca2b8	-0.19983947
228	0x3d732387	0.059360053
229	0xbddcd80e	-0.10783397
230	0x3d2e22e5	0.042513747
231	0xbe5191ef	-0.20465825
232	0x3e54cf81	0.20782281
233	0x3dec798d	0.115466215
234	0xbe49ba58	-0.19699991
235	0xbde83359	-0.11337919
236	0x3e205e94	0.15661079
237	0xbdadc6a8	-0.08485156
238	0x3af6848a	0.001880781
239	0x3e46b2fd	0.19404216
240	0xbcf0f946	-0.029415738
241	0x3e327db0	0.17430758
242	0x3c84fb5d	0.01623314
243	0xbdfc03f0	-0.123054385
244	0xbdd15206	-0.10220723
245	0x3d21062d	0.03931253
246	0x3d9e0266	0.07715301
247	0x3e5ee632	0.217675
248	0x3dcdc73b	0.10047766
249	0xbe378291	-0.17920901
250	0xbe124013	-0.14282255
251	0xbe172687	-0.14760791
252	0xbd4d2444	-0.050083414
253	0xbe131efe	-0.14367291
254	0xbe180d5b	-0.14848845
255	0x3e446e48	0.19182694

denoise_model.dec.linear.bias f4 [256]
0	0x3e25698c	0.16153544
1	0x3e675038	0.22589195
2	0xbe39b4a2	-0.18135312
3	0x3d07a430	0.033115566
4	0x3b4e1698	0.0031446572
5	0xbdb68e62	-0.08913876
6	0x3a8d9c7f	0.0010804086
7	0xbe35cc84	-0.17753798
8	0xbe4f453a	-0.20241252
9	0xbe2c91e6	-0.16852531
10	0xbba0661d	-0.0048949854
11	0x3e106961	0.14102699
12	0x3dc4b172	0.096041575
13	0xbd83ee30	-0.06441915
14	0xbd017fc9	-0.031616006
15	0xbcb2d14d	-0.021828318
16	0xbdf928a7	-0.12165957
17	0x3ceb1e05	0.028700838
18	0xbccd573b	-0.025066009
19	0x3e00d102	0.1257973
20	0x3dfacdfa	0.12246318
21	0xbd943224	-0.07236126
22	0x3cbc560e	0.022990253
23	0xbdd4662b	-0.103710495
24	0xbce5f8bf	-0.028072713
25	0xbe5b9c2f	-0.21446298
26	0x3e5baa0d	0.21451588
27	0x3e4100a9	0.18847908
28	0x3c1244fd	0.008927581
29	0x3d993011	0.07479871
30	0xbb972aa1	-0.004613236
31	0xbd50fbc9	-0.05102137
32	0x3d7d71bb	0.06187604
33	0xbdd4bcd9	-0.10387582
34	0x3e28403d	0.16430755
35	0xbde88f87	-0.11355501
36	0xbacccc8b	-0.0015624923
37	0xbde26985	-0.110552825
38	0xbd163cd1	-0.036679093
39	0xbd912b8e	-0.070883855
40	0xbe0d83a4	-0.13819748
41	0xbdf86b29	-0.12129814
42	0x3dfe8b4b	0.12428912
43	0x3e010f40	0.12603474
44	0xbe1bc58b	-0.15212075
45	0xbd41d9e1	-0.047326926
46	0x3d704bb0	0.05866593
47	0xbbda34dc	-0.0066591334
48	0xbd72a516	-0.05923947
49	0xbba8df3f	-0.005153566
50	0x3dff55c4	0.1246753
51	0xbe4b1567	-0.19832383
52	0xbdb2bf14	-0.087278515
53	0xbd0bc1d8	-0.03412041
54	0xbe56c78e	-0.20974562
55	0x3e3ab010	0.18231225
56	0xbdacfc00	-0.08446503
57	0x3e0dc37c	0.13844103
58	0x3e301a9c	0.1719765
59	0x3d5f6935	0.054543693
60	0x3d6dd3d4	0.058063343
61	0x3dabfca7	0.08397799
62	0x3dabb389	0.08383853
63	0xbe038eb6	-0.12847409
64	0xbca68437	-0.020326717
65	0x3d8cb90c	0.068712324
66	0x3c6ceefc	0.014461275
67	0x3dcb513b	0.09927603
68	0x3e55c5c6	0.20876226
69	0xbcf1092b	-0.029423317
70	0xbd15c981	-0.036569122
71	0x3dd4581d	0.10368369
72	0xbc057fec	-0.008148175
73	0xbc48eb07	-0.012263066
74	0xbe507721	-0.20357944
75	0x3c21bccd	0.009871674
76	0xbe5f3b7b	-0.21800034
77	0x3bb1fef9	0.0054320064
78	0xbb10f48c	-0.0022118418
79	0xbd04fcd4	-0.03246768
80	0xbc945e81	-0.01811147
81	0xbbcea143	-0.006305845
82	0xbe02e770	-0.12783599
83	0x3caf6882	0.021412138
84	0xbe0082bc	-0.12549871
85	0xbcfc4b3d	-0.030797595
86	0xbe0bbbb1	-0.13645817
87	0xbe4176dc	-0.18892998
88	0x3dd2077f	0.10255336
89	0x3e41ba63	0.18918757
90	0x3c890590	0.016726285
91	0x3c8ec2d2	0.017426882
92	0xbe4e8861	-0.20169212
93	0x3e506792	0.20352009
94	0xbe4840e1	-0.19556
95	0xbdfb83e6	-0.12281017
96	0x3c596cbf	0.013270556
97	0x3d70ad08	0.058758765
98	0x3e5f2802	0.21792606
99	0x3d1c3e95	0.03814562
100	0x3db9a6e1	0.09065033
101	0x3e25e024	0.16198784
102	0xbe050315	-0.12989457
103	0xbe4e1f48	-0.2012912
104	0xbd51da74	-0.051233724
105	0x3e4bb9f0	0.19895148
106	0xbcbace09	-0.022803323
107	0xbdb154f0	-0.08658779
108	0xbd646744	-0.055762544
109	0xbdbabeb6	-0.091184065
110	0xbe3fceb1	-0.1873119
111	0x3e4b447d	0.19850345
112	0x3e4bae85	0.19890793
113	0x3de434c3	0.11142876
114	0xbdd87e9b	-0.10571023
115	0xbbd2e161	-0.0064355587
116	0xbd6b1ae1	-0.05739868
117	0xbd8137e7	-0.06309491
118	0xbe10873a	-0.14114085
119	0xbdb5860c	-0.08863458
120	0xbda130d3	-0.078706406
121	0x3ce95f04	0.02848769
122	0x3e421b0f	0.18955635
123	0xbdc10319	-0.09424419
124	0xbe42fd75	-0.19041999
125	0xbd58dd0c	-0.05294518
126	0x3b9ade57	0.004726212
127	0xbe0e3633	-0.13887863
128	0x3e6ac7e5	0.22927816
129	0xbe278a61	-0.16361381
130	0x3e36a9bf	0.1783819
131	0xbdc1412f	-0.09436261
132	0x3e5e283e	0.21695039
133	0x3d90f07a	0.07077117
134	0xbe62c39d	-0.22144933
135	0x3c695862	0.0142422635
136	0x3d322f3a	0.04350207
137	0x3d6535f8	0.05595967
138	0xbd299cbd	-0.041409243
139	0xbe06e1df	-0.131721
140	0x3d8cef88	0.068816245
141	0x3e19f6f9	0.15035619
142	0x3dab26ea	0.08357032
143	0xbddda594	-0.10822597
144	0x3e02f1ca	0.12787548
145	0xbcdeb7f1	-0.02718732
146	0xbc42c3a8	-0.011887468
147	0x3e14ff30	0.14550471
148	0xbe07b407	-0.13252269
149	0xbdabeb3c	-0.08394477
150	0x3e4f1f10	0.20226693
151	0xbc9acd3a	-0.018896688
152	0x3e1f8708	0.15578854
153	0xbe32daf6	-0.1746634
154	0xbdcb6b1e	-0.0993254
155	0x3d7c4a98	0.061594576
156	0xbe20ba2a	-0.15696016
157	0xbe3fe554	-0.18739825
158	0x3db543c0	0.08850813
159	0x3d48f512	0.049061842
160	0xbd080e2d	-0.033216644
161	0xbe4b2257	-0.19837318
162	0xbe2e76d1	-0.17037512
163	0xbe39e010	-0.1815188
164	0xbe2fcc6f	-0.17167829
165	0x3dac3050	0.084076524
166	0xbd6e06e3	-0.058112036
167	0xbc9f42f8	-0.019441113
168	0xbdef01f5	-0.11670295
169	0x3cd8da15	0.026471177
170	0x3e2da52e	0.16957542
171	0xbe2456d6	-0.1604875
172	0x3d98ba03	0.07457354
173	0xbdf7b9c8	-0.12095982
174	0x3e14373b	0.14474194
175	0xbe0537eb	-0.13009612
176	0xbe33b42f	-0.17549203
177	0x3e44723a	0.19184199
178	0x3e10751f	0.14107178
179	0x3d84f895	0.06492726
180	0xbd846fdd	-0.06466649
181	0xbe4a7d9a	-0.19774476
182	0xbcc463a4	-0.023973294
183	0x3e29f717	0.16598164
184	0xbde1f467	-0.11032944
185	0xbe53688b	-0.20645349
186	0x3e3ae976	0.18253121
187	0x3e10c4bf	0.14137553
188	0x3e3f4f28	0.1868254
189	0x3e1cf7c4	0.1532889
190	0x3ddab130	0.10678327
191	0x3de2205a	0.11041327
192	0xbe3039da	-0.17209569
193	0xbcba2a34	-0.022725202
194	0xbde0953b	-0.109659635
195	0x3e1e0633	0.15432052
196	0xbdff7bfb	-0.12474819
197	0x3b41aae6	0.0029551326
198	0x3e1112ee	0.14167377
199	0xbe27c27c	-0.16382784
200	0xbe2f426a	-0.17115179
201	0xbd831b25	-0.06401662
202	0xbdab9d16	-0.08379571
203	0xbe10b6bc	-0.14132208
204	0xbd7c1cdb	-0.061550956
205	0xbd9926c9	-0.07478101
206	0xbc010c88	-0.007876523
207	0x3cf8a67a	0.03035282
208	0xbbfe066a	-0.0077522295
209	0x3c35dbea	0.011099795
210	0x3d95f664	0.07322386
211	0xbdbcd8e3	-0.09221055
212	0xbe024905	-0.12723167
213	0xbdebfee2	-0.115232244
214	0xbe299b72	-0.16563204
215	0x3e0994b2	0.13435629
216	0xbe54bf3c	-0.20776075
217	0xbe4cb146	-0.199895
218	0x3e565a7e	0.20932958
219	0xbe3f8317	-0.1870235
220	0xbb1d9566	-0.0024045347
221	0xbe409493	-0.18806677
222	0x3e042ea7	0.12908421
223	0xbd802bd1	-0.06258357
224	0x3e49bc9b	0.19700854
225	0x3d8a1790	0.067427754
226	0x3e10528e	0.14093992
227	0xbdfd06fa	-0.12354846
228	0x3c8d6c12	0.017263446
229	0xbd603c86	-0.05474522
230	0xbe3e8d2e	-0.18608543
231	0x3d0aaf9d	0.033858884
232	0x3d3b8e7d	0.045790184
233	0x3d80f874	0.06297389
234	0xbe586594	-0.21132499
235	0xbc6c3316	-0.014416477
236	0xbd8b6829	-0.06806976
237	0x3e530b5e	0.20609805
238	0x3dcc5396	0.0997688
239	0x3e155667	0.14583741
240	0x3e2ef025	0.17083795
241	0x3e46e92f	0.1942489
242	0xbe388612	-0.18019894
243	0x3e37d165	0.17950971
244	0xbe57bd4c	-0.21068305
245	0xbdad8fd1	-0.084746964
246	0xbd3803eb	-0.04492561
247	0xbd83c571	-0.06434143
248	0xbe161d07	-0.1465951
249	0x3d99e3a7	0.07514124
250	0xbe5fd154	-0.21857196
251	0xbae2a795	-0.0017292375
252	0xbd845c45	-0.064629115
253	0xbe2bd7b8	-0.16781509
254	0xbd9b7d27	-0.0759223
255	0x3e1ca697	0.15297924

denoise_model.dec.out.weight f4 [18, 256]
0	0x3b3cbb6c	0.0028798236
1	0xbd920c51	-0.071312554
2	0xbcb3dbcc	-0.021955393
3	0xbd7a1e5c	-0.06106411
4	0x3c9a342d	0.018823707
5	0x3c93c4a8	0.018038109
6	0xbd2e2d0b	-0.042523425
7	0xbd72ce52	-0.059278794
8	0xbd86fa89	-0.065907545
9	0xbc1b1c9a	-0.009467268
10	0xbc99b635	-0.01876364
11	0x3d525bd2	0.051357098
12	0x3cf3fd5f	0.029783903
13	0x3b8ac45b	0.004234833
14	0x3d31f743	0.043448698
15	0xbd6c0a57	-0.05762705
16	0xbcdbf59a	-0.02685051
17	0x3c84a47b	0.016191712
18	0xbd4159e3	-0.047204863
19	0xbc6cdf19	-0.0144574875
20	0xbd003ee1	-0.031309966
21	0xbd2efdbb	-0.042722445
22	0xbbb55b29	-0.005534549
23	0xbd632ebe	-0.0554645
24	0xbc80fe18	-0.015746161
25	0xbc47e0df	-0.01219961
26	0xbc094b67	-0.008379794
27	0x3ca95eff	0.02067518
28	0xbc0264b3	-0.007958579
29	0x3c994918	0.018711612
30	0x3c08b9ee	0.00834511
31	0xbd9279f9	-0.07152171
32	0xbc9ca7bd	-0.019122953
33	0xbcc9c6e4	-0.024630971
34	0x3d57718a	0.052598514
35	0x3c3a730e	0.01137997
36	0x3ce00779	0.027347313
37	0x3d20954e	0.039204888
38	0x3d228cd6	0.039685093
39	0x3cfe82ed	0.03106829
40	0x3c8ab5b0	0.016932338
41	0x3c85154b	0.016245505
42	0xbc844f7b	-0.01615118
43	0xbd6320b4	-0.05545111
44	0x3bd8f7ff	0.0066213603
45	0xbd3dfb11	-0.046382014
46	0xbcffaa04	-0.031209
47	0xbbca220c	-0.0061686095
48	0xbcb07de8	-0.021544412
49	0x3d3972c1	0.045275453
50	0xbce035fc	-0.027369492
51	0xbbca1596	-0.006167124
52	0x3aa134d2	0.0012299067
53	0xbcddb1ef	-0.027062384
54	0xbccd3c51	-0.025053175
55	0x3cadcf7c	0.0212171
56	0xbd5355ba	-0.051595427
57	0xbd0e7578	-0.034779996
58	0xbb996a1e	-0.0046818396
59	0x3caefbc7	0.021360291
60	0xbc338e95	-0.010959287
61	0x3d0a0185	0.033692855
62	0x3d08c5a7	0.03339162
63	0xbd72e53d	-0.05930065
64	0xbd945c6d	-0.07244191
65	0x3ba516d4	0.0050381217
66	0x3d1bacc4	0.03800656
67	0x3c48cc11	0.0122556845
68	0xbd2ab234	-0.041673854
69	0xbd6515f0	-0.055929124
70	0xbccc3f01	-0.024932386
71	0xbc391b66	-0.011298036
72	0x3d43ac0c	0.0477715
73	0xbca613aa	-0.020273048
74	0xbcceb71d	-0.0252338
75	0x3d10d055	0.03535493
76	0x3d295d82	0.04134894
77	0xbd055811	-0.03255469
78	0x3c210383	0.009827497
79	0xbcc4ac1e	-0.024007853
80	0xbcae1c69	-0.021253781
81	0xbc9aa5c4	-0.018877871
82	0xbc264fce	-0.010150863
83	0xbd2458e2	-0.040123828
84	0x3b52655b	0.003210387
85	0x3c52c769	0.012864926
86	0xbd23ce11	-0.039991442
87	0xbc69f865	-0.014280413
88	0xbd8ca917	-0.06868189
89	0xbcdb1a21	-0.026745858
90	0x3bfdd6bc	0.0077465456
91	0xbd177b41	-0.03698278
92	0x3cf8a874	0.030353762
93	0x3b03bd10	0.0020101704
94	0xbd85743c	-0.065163106
95	0x3d31401b	0.043274026
96	0xbbf41753	-0.0074490695
97	0x3be440ff	0.006965756
98	0xbca6e8de	-0.020374712
99	0xbd2f5e9e	-0.042814843
100	0xbc8d0159	-0.017212557
101	0xbda2c6c7	-0.0794807
102	0xbd6f7e00	-0.058469772
103	0x3d062aec	0.032755777
104	0xbd71a823	-0.05899824
105	0xbd0d1478	-0.03444335
106	0xbd0a7253	-0.033800434
107	0xbd384f52	-0.04499752
108	0xbd8dfbc7	-0.06932788
109	0xbd8102f7	-0.062993936
110	0xbd154bd1	-0.036449257
111	0xbd38b09a	-0.045090295
112	0xbd963503	-0.0733433
113	0x3c053166	0.008129453
114	0xbd8dbdcb	-0.06920966
115	0x3baebb44	0.0053323824
116	0x3d40b180	0.047044277
117	0x3ae00989	0.0017092685
118	0x3bdcbefb	0.006736634
119	0xbc6d58da	-0.014486516
120	0xbcedc9e4	-0.029026933
121	0xbc76779b	-0.015043165
122	0xbd53da74	-0.051722005
123	0x3d2cd1c0	0.04219222
124	0xbc4d97c7	-0.012548394
125	0x3a8b4a94	0.0010627084
126	0xbd576632	-0.052587695
127	0x3bc366ae	0.005963168
128	0xbca26443	-0.0198232
129	0x3d1e4f3b	0.03864978
130	0x3d22444f	0.039615925
131	0x3c536d99	0.012904548
132	0xbc34cffb	-0.0110359145
133	0x3b6cd0e7	0.0036135258
134	0x3c4f6650	0.012658671
135	0xbd3084be	-0.043095343
136	0x3ac07e6a	0.0014686112
137	0x3d18d358	0.037310928
138	0xbd20bd63	-0.039243113
139	0xbd996265	-0.074894704
140	0xbc9e4700	-0.019320965
141	0xbc8b5561	-0.017008485
142	0xbd1063d8	-0.03525147
143	0xbd309d32	-0.043118663
144	0xbbdf2e0f	-0.0068109105
145	0x3cf0d038	0.029396161
146	0xbcd05348	-0.025430337
147	0xbd69fe10	-0.05712706
148	0xbd645727	-0.055747177
149	0xbd86a61d	-0.06574652
150	0xbc997593	-0.018732822
151	0xbd2c71bb	-0.04210065
152	0x3c99fa8f	0.018796233
153	0xbd53e7c5	-0.051734705
154	0x3c27b80c	0.010236751
155	0xbc6ea1ef	-0.014564975
156	0xbc894980	-0.01675868
157	0x3d1a169e	0.037619226
158	0xbce20904	-0.02759219
159	0x3d24ba6a	0.04021684
160	0x3d275175	0.040849168
161	0x3c90f942	0.01769698
162	0xbd438ac8	-0.047739774
163	0xbc448245	-0.011993949
164	0x3c58c101	0.0132296095
165	0xbacb59be	-0.0015514416
166	0x3d56230b	0.052279513
167	0xbc69c307	-0.01426769
168	0x3d34abb2	0.044109054
169	0x3b4d482e	0.003132354
170	0xbc5ec8e2	-0.013597699
171	0xbced398c	-0.028958105
172	0xbb9ad67e	-0.0047252765
173	0x3cba9c64	0.022779651
174	0xbd58ae64	-0.052900687
175	0x3d2109da	0.039316036
176	0xbcf5c4ad	-0.030001009
177	0xbd822859	-0.06355352
178	0xbc4393e8	-0.011937119
179	0x3c0fb107	0.008770234
180	0xbc89de4d	-0.016829634
181	0xbc1e92c6	-0.009678548
182	0xbd342261	-0.0439781
183	0x3cb44776	0.022006731
184	0xbd5d542a	-0.054035343
185	0x3d472b06	0.048625015
186	0xbc7cda68	-0.0154329315
187	0xbd3dbc00	-0.04632187
188	0xbc86caf7	-0.016454203
189	0x3d0b49ee	0.03400605
190	0xbcf36139	-0.029709445
191	0xbcd195f6	-0.025584202
192	0xbc6bfb03	-0.014403108
193	0xbcc6c944	-0.024265893
194	0xbd4877af	-0.048942264
195	0x3d2315a4	0.03981556
196	0xbd8f43d2	-0.069953576
197	0x3d1bce97	0.038038816
198	0x3a5deac4	0.0008465464
199	0x3d4b6ba3	0.049663197
200	0xbd371bb1	-0.044704143
201	0xbd8ec647	-0.06971412
202	0xba051f87	-0.00050782453
203	0x3ca465ea	0.020068128
204	0xbbc99622	-0.0061519304
205	0x3c8b6600	0.01701641
206	0xbd102279	-0.035189126
207	0x3d433d1a	0.047665693
208	0x3d1bf8cf	0.03807908
209	0x3d172ea3	0.03690971
210	0x3d317f23	0.043334138
211	0xbb659656	-0.0035032234
212	0xbd48e025	-0.049041886
213	0xbc8a72a2	-0.016900364
214	0x3cb6bbf6	0.022306424
215	0xbd21113f	-0.039323088
216	0x3d55c1fc	0.05218695
217	0xbd79cbf5	-0.060985524
218	0xbd31ae4c	-0.043379113
219	0xbbfc4f35	-0.007699872
220	0xbccebccf	-0.025236515
221	0xbc2483ee	-0.01004122
222	0xbd1e590c	-0.03865914
223	0xbd87afdf	-0.066253416
224	0x3d38d0a5	0.045120854
225	0xbd9a5737	-0.07536166
226	0xbca93054	-0.020652927
227	0xbcf99710	-0.03046754
228	0xbd705250	-0.05867225
229	0x3cb8b5b1	0.022547575
230	0x3c04b49b	0.0080997
231	0x3cbc3954	0.022976555
232	0xbbc1477b	-0.0058984137
233	0xbb63c7f3	-0.003475663
234	0xbcee8063	-0.029113954
235	0x3c8c9cf6	0.017164689
236	0xbd82952b	-0.06376108
237	0xbc54d68e	-0.012990607
238	0xbd0b1461	-0.03395498
239	0xbd2d5af9	-0.042323086
240	0x3d3f6153	0.046723675
241	0xbca72242	-0.020402078
242	0xbcb70623	-0.022341793
243	0xbce4834b	-0.027894637
244	0xbd608ddf	-0.0548228
245	0x3d3c9ecc	0.046049878
246	0xbd8d88b0	-0.06910837
247	0xbd91d088	-0.07119852
248	0xbd5c22fb	-0.053744297
249	0xbd6db21d	-0.05803119
250	0x3d2bca8f	0.04194122
251	0x3ce17416	0.027521174
252	0xbd1744ab	-0.03693072
253	0xbc34fcbc	-0.011046585
254	0xbc28aa03	-0.01029444
255	0xbd2e683f	-0.042579886

denoise_model.dec.out.bias f4 [18]
0	0x3d2eac5a	0.042644836
1	0x3c532771	0.0128878215
2	0xbd14978b	-0.036277335
3	0x3c7cc025	0.01542667
4	0x3cc0b921	0.023525776
5	0xbcf89cfe	-0.030348297
6	0xbd1ba9fa	-0.0380039
7	0x3c3cf9e0	0.011534184
8	0x3a518217	0.0007992102
9	0xbd71f7ce	-0.059074216
10	0x3bdacde9	0.0066773784
11	0x3cd9fcc8	0.026609793
12	0x3c8ad84d	0.016948843
13	0xbc785ad7	-0.015158377
14	0xbc64d9a1	-0.013967902
15	0x3cd8149b	0.026377013
16	0xbd5517d2	-0.05202467
17	0xbcd03321	-0.025415005
